LogLLM/LogLLM-master/ft_model_BGL/Bert_ft/adapter_model.safetensors (safetensors, 596240 bytes, 48 tensors)

base_model.model.encoder.layer.0.attention.self.query.lora_A.weight f4 [4, 768]
0.03497676 0.03888811 -0.022968242 -0.009017072 0.0186639 0.002619811 0.025171384 0.030879233
0.032503016 0.01625974 -0.018729398 -0.010946901 0.0085651595 -0.0112030525 -0.030102212 -0.024365667
-0.0005788808 -0.021434616 -0.02521846 -0.026330972 -0.0398213 0.008946904 -0.027029863 -0.023625242
-0.025782293 0.019865995 -0.025448095 -0.02872089 0.019940978 -0.026328098 -0.02937447 -0.01966122
0.030944496 0.024580859 0.0079983715 -0.012797716 -0.026497867 0.017080292 -0.009474565 -0.03281653
0.027525669 -0.018046446 0.013366746 0.028457709 -0.0195389 -0.008879556 0.018202512 -0.029287662
0.0043862844 -0.015561242 0.012487544 0.0036805228 -0.017700154 0.022240294 -0.005447046 -0.013916676
-0.037305146 0.02401029 0.039106537 -0.03553519 0.0155824255 0.018336859 -0.026627714 -0.01980034
-0.037821766 0.039807506 0.016305042 0.0020098686 0.035854753 -0.00073698425 0.0006139995 -0.005035444
-0.023904653 -0.012598766 0.017836548 0.035413373 -0.0024114805 -0.022456674 0.013166475 0.015524559
0.03503903 0.0041307365 -0.013699634 0.016362024 0.0029249873 -0.0190334 -0.014089852 0.016654141
-0.016032673 0.008792098 0.04076322 -0.01599898 -0.039542057 0.028795036 -0.0130924685 0.02906848
0.030031977 -0.020750163 -0.0063788206 -0.014296373 0.030243538 -0.037216645 0.0045507113 0.0071729296
0.0024154033 0.03097326 0.004365486 -0.0044426457 -0.010504275 0.025542803 0.022722121 -0.0029087737
-0.025508571 0.0053380327 -0.024334325 0.027818719 0.005644641 0.00415563 -0.0022545147 0.011938966
0.012913084 -0.019387623 -0.02717458 -0.023596093 0.0050502527 0.022984378 0.02961833 -0.002052852
-0.021530567 -0.035082094 0.031432677 0.025699485 -0.01231061 -0.040024534 0.03923772 -0.03451373
0.036435198 -0.03133475 0.014620863 0.019754037 0.017811785 0.015060557 0.0049837246 0.030661331
0.016676445 0.026695225 0.0021177633 0.039059095 -0.0074570067 0.028982967 -0.013168309 0.014944503
-0.029611018 -0.0037919877 -0.014063255 -0.023356823 -0.014588579 -0.026677841 0.023225479 0.020016743
0.0037778043 0.03542706 0.02528183 0.025848279 0.0044488083 -0.02420528 0.02613289 -0.028221916
-0.016308432 0.01804698 0.02306898 -0.018955002 0.0153371645 -0.020229815 -0.004227568 -0.025834715
0.0053558736 0.022875335 -0.00863366 0.013002537 0.018627016 0.028979726 0.024855595 -0.009801247
0.007834136 0.017437587 0.020571996 0.026735846 0.027657054 0.026533432 -0.028988296 0.028024375
-0.0065094433 -0.032403927 -0.01228 0.002679047 -0.031147225 -0.013182541 -0.016835928 -0.01563574
-0.018221017 0.0037779147 0.036776718 0.024557004 0.027691435 0.009806789 -0.004458502 0.0019340434
-0.025131535 -0.04048415 -0.036486056 0.01168984 0.015643436 -0.010860884 -0.013981018 0.0049620783
0.024206217 -0.034896553 -0.013315613 -0.0030971698 0.024304729 0.0011361545 -0.0069978815 -0.0074377717
-0.029882174 -0.020252421 0.022478 -0.025406197 0.031546406 0.029106067 0.021452853 -0.014020501
-0.010517055 0.024211168 0.0060566654 -0.01469712 0.019474983 0.023145512 0.032486275 0.02235427
0.01892392 0.022294218 0.039250087 0.010298057 -0.01769291 0.008740692 -0.03161989 0.028536106
-0.031080147 -0.024323396 -0.007820279 0.012986846 -0.006733251 0.004298166 0.0066552893 0.008140005
00000000: cb43 0f3d 2449 1f3d e527 bcbc 57bc 13bc
00000010: 09e5 983c 23b1 2b3b 3834 ce3c 72f6 fc3c
00000020: e221 053d 2533 853c 656e 99bc a15a 33bc
00000030: e254 0c3c 028d 37bc ea98 f6bc 829a c7bc
00000040: 08c0 17ba a697 afbc f296 cebc 0db4 d7bc
00000050: a91b 23bd 0996 123c bb6d ddbc b989 c1bc
00000060: 6335 d3bc 03be a23c 8678 d0bc 1248 ebbc
00000070: 435b a33c 06ae d7bc baa2 f0bc 9110 a1bc
00000080: 507f fd3c cc5d c93c 9a0b 033c 83ad 51bc
00000090: 0e12 d9bc f8eb 8b3c 353b 1bbc a06a 06bd
000000a0: 837d e13c 24d6 93bc 3200 5b3c 2420 e93c
000000b0: 0b10 a0bc 8f7b 11bc 6f1d 953c aeec efbc
000000c0: d2ba 8f3b 94f4 7ebc 8e98 4c3c ed34 713b
000000d0: eaff 90bc 4731 b63c 227d b2bb c502 64bc
000000e0: 48cd 18bd 3ab1 c43c 2d2e 203d 598d 11bd
000000f0: 6e4d 7f3c 2e37 963c 5d22 dabc 5334 a2bc
00000100: ffea 1abd 320d 233d 2792 853c 00b8 033b
00000110: 6fdc 123d 2d32 41ba cff4 203a 5e00 a5bb
00000120: b1d3 c3bc 0e6b 4ebc f41d 923c 9d0d 113d
00000130: ee09 1ebb 0ff7 b7bc 33b8 573c b85a 7e3c
00000140: 1685 0f3d 215b 873b 6e74 60bc a709 863c
00000150: 25b1 3f3b efeb 9bbc 1fd9 66bc 446e 883c
00000160: f456 83bc bb0c 103c 56f7 263d 4b10 83bc
00000170: daf6 21bd 91e3 eb3c cb81 56bc 0521 ee3c
00000180: 9f05 f63c 3ffc a9bc 6d05 d1bb 563b 6abc
00000190: 4cc1 f73c 7b70 18bd 221e 953b e50a eb3b
000001a0: be4b 1e3b a2bb fd3c 5a0c 8f3b 9d93 91bb
000001b0: 1f1a 2cbc 243f d13c be23 ba3c 20a1 3ebb
000001c0: 5af7 d0bc aaea ae3b c758 c7bc 15e4 e33c
000001d0: aef6 b83b f32b 883b 7bc0 13bb a79b 433c
000001e0: 6691 533c cbd2 9ebc 3a9d debc 984c c1bc
000001f0: 977c a53b bc49 bc3c 24a2 f23c 2489 06bb
00000200: df60 b0bc 3eb2 0fbd 8dbf 003d ba87 d23c
00000210: 71b2 49bc c4f0 23bd bbb7 203d 455e 0dbd
00000220: 133d 153d de58 00bd 588c 6f3c 38d3 a13c
00000230: 05ea 913c 8ec0 763c 834e a33b 792d fb3c
00000240: 0a9d 883c f2af da3c 2cca 0a3b 6efc 1f3d
00000250: e859 f4bb b06d ed3c e4bf 57bc cad9 743c
00000260: ce92 f2bc ff82 78bb 9169 66bc cf56 bfbc
00000270: ef04 6fbc 7d8b dabc 5c43 be3c 27fa a33c
00000280: 0a95 773b f71b 113d d71b cf3c c5bf d33c
00000290: 4fc7 913b 274a c6bc a414 d63c a631 e7bc
000002a0: 4399 85bc 43d7 933c 28fb bc3c 8547 9bbc
000002b0: bb48 7b3c ffb8 a5bc 6987 8abb 53a3 d3bc
000002c0: 5380 af3b 0e65 bb3c 3274 0dbc 9808 553c
000002d0: af97 983c e466 ed3c f69d cb3c 6995 20bc
000002e0: bf5a 003c 45d9 8e3c 9a86 a83c 2205 db3c
000002f0: 0c91 e23c a45c d93c dd78 edbc 6093 e53c
00000300: 2b4d d5bb fbb9 04bd 0e32 49bc f392 2f3b
00000310: 7728 ffbc 96fb 57bc 80eb 89bc 8616 80bc
00000320: 3e44 95bc e496 773b 2fa3 163d c52b c93c
00000330: 26d9 e23c a8ac 203c a018 92bb ba7f fd3a
00000340: a6e0 cdbc b5d2 25bd 6772 15bd be86 3f3c
00000350: aa26 803c d9f1 31bc a410 65bc ee98 a23b
00000360: 1e4c c63c b0ef 0ebd bb29 5abc e3f9 4abb
00000370: b61a c73c 05eb 943a 7c4e e5bb 8db8 f3bb
00000380: 76cb f4bc 68e8 a5bc c823 b83c a820 d0bc
00000390: ce36 013d d96f ee3c e5bd af3c 3eb6 65bc
000003a0: ba4f 2cbc 8056 c63c fe76 c63b 30cc 70bc
000003b0: 008a 9f3c a89b bd3c 5410 053d 4d20 b73c
000003c0: 5606 9b3c 5da2 b63c b3c4 203d 2fb9 283c
000003d0: b9f0 90bc 1f35 0f3c dc83 01bd 8dc4 e93c
000003e0: cb9b febc dc41 c7bc a120 00bc c8c6 543c
000003f0: 9aa2 dcbb a1d7 8c3b 9d14 da3b a85d 053c

base_model.model.encoder.layer.0.attention.self.query.lora_B.weight f4 [768, 4]
0.0025436985 0.0028485132 -0.0012691782 0.0018173894 0.0042767553 -0.0019048061 0.0014744145 0.00305231
0.0066591874 -0.0026446646 0.00028164228 0.0034545262 -0.0017253788 -0.00065237086 -0.00069233234 -0.0046440307
0.0035716444 -0.0051008333 0.00014312445 -0.0006680061 -0.005039583 0.0014923431 0.0014162397 -0.0014737828
0.003005553 -0.0014624207 -0.0005851947 -2.1919452e-05 -0.004607831 -0.0028979068 0.0023717983 -0.0010629923
0.0044945683 0.0027019237 -0.0034730444 0.0025318256 0.0019887635 -0.002571998 0.0033810753 -0.0017285487
-0.0031554992 0.0013432741 -0.0002443491 0.0013036598 -0.0009876596 0.0019689724 0.0042116297 -0.00068948395
-0.0032779495 -0.0007921229 0.0036073537 -0.00016962824 -0.0010771118 0.0033975902 -0.00304168 -0.0024486445
-0.0070795915 0.0027897058 0.00023606123 -0.0033504497 -0.000988958 0.0025694398 -0.0026073207 0.0017462136
-0.0048212763 -0.0020078775 0.0008177335 9.124046e-05 -0.0004708061 -0.0019210116 0.0017910834 0.0027865511
0.002626072 -0.00017736503 -0.0018862447 0.001337521 -0.005467406 0.0024049869 1.0623476e-06 -0.0003350122
-0.0047170212 0.0010566203 -0.0012229919 0.0012123683 -0.004609323 -0.00095542666 0.00294392 0.0009900985
0.0021020172 -0.0034321558 0.00027120073 -0.0024362437 0.001438621 -0.00056571094 0.00120945 0.0009208487
-0.0022514802 0.0037896445 -0.0020536173 -0.0011254291 0.00059994304 -0.0058899163 0.004603801 0.0021345578
-0.0041617276 0.0010408945 -0.0009866179 -0.00075507077 0.0019020448 -0.0042708474 0.0023782724 0.0027942602
0.0017624154 -0.0016573488 0.0028353783 -0.00026852393 0.00077347853 -0.0054260604 0.0030126655 -0.00026058755
0.0036516988 -0.003995944 -0.0005774402 0.002649073 -0.0014658894 0.0012791383 -0.0017327829 -4.015192e-05
0.0023398274 0.003656271 -0.00013322794 -0.002374464 0.0022427824 2.3416871e-05 -0.0039708843 0.0025965848
0.0008638848 0.0012901778 -0.0015541936 -0.00025021815 0.001138189 -9.699805e-06 -0.0002178338 -0.0011029727
0.006507603 0.0010501043 -0.0045963656 0.0030943886 0.003568117 -0.0012659202 -0.0028933233 0.0019932992
-0.001973842 0.0027834114 -0.0017449167 -0.0007767778 0.0038003852 -0.0011124607 0.0009672504 0.00097406155
-0.0017704624 -0.00056694465 0.0023011705 -0.004298244 -0.0021549128 0.0005466954 -0.0017007563 0.00030201918
0.0044172877 -0.0015270276 0.0007741984 1.0516132e-05 0.0024208124 -0.0045456057 0.0018821722 -0.00067668245
0.0018415564 -0.0051890397 0.0015889789 0.002130274 0.001499254 -0.0057525747 0.002101924 0.0005865184
0.0015706534 0.00022598932 -0.0040616775 -9.337294e-06 0.002452382 -0.0008571648 -0.0031680213 0.00456301
-0.0010929523 0.005133967 -0.0032873696 -0.0016114664 -0.0007072532 -0.0001566602 -9.3013696e-05 0.00023801843
-0.0044011683 0.0021795118 0.0021587196 -0.0067263236 -0.00043559092 -0.0038496428 0.0029901871 -0.0002875738
-0.0075436123 0.001431754 0.00029572786 -0.0022284796 0.0009752951 0.0010557171 -0.00066402514 -0.00071214855
0.0043466906 0.0014398276 -0.0021392647 0.0048646284 -0.003818474 -0.0011333681 0.0028600963 0.0013837583
0.0014859418 -0.0023889802 0.0012298434 -0.00078039535 0.00062851014 -0.0013049294 0.0011815375 0.00436135
-9.571194e-05 0.0029248453 -0.0013973573 -0.0027230114 0.0031019333 0.0023168696 -0.0027487346 -0.0015554157
-0.0017057776 0.0010058072 -0.0013733162 -0.00094819523 -0.0020924725 -0.0032363734 0.0033304428 -0.0036989134
0.0004354811 0.0038084772 -0.00043478605 -0.0005688857 -0.0011903372 -0.0027202638 0.0015557329 -0.00043739984
00000000: 2eb4 263b 1fae 3a3b 8e5a a6ba 7835 ee3a
00000010: 0624 8c3b b0aa f9ba 2441 c13a 4409 483b
00000020: 5035 da3b 1c52 2dbb 63a9 9339 5565 623b
00000030: 1b26 e2ba de03 2bba a37d 35ba f42c 98bb
00000040: 4012 6a3b e424 a7bb ad13 1639 211d 2fba
00000050: 1623 a5bb ba9a c33a 1ea1 b93a f22b c1ba
00000060: d0f8 443b b2ae bfba c067 19ba aadf b7b7
00000070: 4afd 96bb cfea 3dbb 2c70 1b3b 1a54 8bba
00000080: 2c47 933b c212 313b 049c 63bb fcec 253b
00000090: ea55 023b f78e 28bb 0895 5d3b 7890 e2ba
000000a0: 7ecc 4ebb cd10 b03a fb1b 80b9 90df aa3a
000000b0: 5b74 81ba e009 013b b601 8a3b 7cbe 34ba
000000c0: ded2 56bb 78a6 4fba 5a69 6c3b 3cde 31b9
000000d0: e02d 8dba 1baa 5e3b ec56 47bb 7079 20bb
000000e0: ebfb e7bb 7fd3 363b 3487 7739 3893 5bbb
000000f0: ed9f 81ba 0c64 283b 95df 2abb 35e1 e43a
00000100: ccfb 9dbb 9896 03bb 2b5d 563a 5958 bf38
00000110: 86d6 f6b9 74ca fbba c9c2 ea3a 929e 363b
00000120: 2d1a 2c3b 10fb 39b9 df3b f7ba c24f af3a
00000130: ed27 b3bb fc9c 1d3b fc95 8e35 94a4 afb9
00000140: 3e91 9abb 4b7e 8a3a cc4c a0ba 54e8 9e3a
00000150: ce09 97bb 9975 7aba c8ee 403b 31c6 813a
00000160: ffc1 093b 05ee 60bb f22f 8e39 63a9 1fbb
00000170: 1c90 bc3a 384c 14ba 6886 9e3a 1c65 713a
00000180: 928d 13bb af5b 783b fb95 06bb 2283 93ba
00000190: 7f45 1d3a 3300 c1bb 7bdb 963b f0e3 0b3b
000001a0: 1a5f 88bb a06e 883a 6751 81ba f1ef 45ba
000001b0: 084e f93a 77f2 8bbb cadc 1b3b e81f 373b
000001c0: d900 e73a 663b d9ba c1d1 393b acc8 8cb9
000001d0: 44c3 4a3a 18cd b1bb 2470 453b 789f 88b9
000001e0: 5751 6f3b 68f0 82bb 5b5f 17ba 129c 2d3b
000001f0: 1623 c0ba c2a8 a73a 8c1e e3ba cc68 28b8
00000200: ca57 193b 0c9e 6f3b 1ab3 0bb9 e59c 1bbb
00000210: a5fb 123b 596f c437 311e 82bb 772b 2a3b
00000220: 5476 623a 2f1b a93a 15b6 cbba b62f 83b9
00000230: 492f 953a 58bc 22b7 516a 64b9 9f91 90ba
00000240: bb3d d53b a7a3 893a 1c9d 96bb 3acb 4a3b
00000250: 12d7 693b 3ced a5ba e99d 3dbb 03a2 023b
00000260: 935b 01bb e569 363b b0b5 e4ba ada0 4bba
00000270: e20f 793b fdcf 91ba 138f 7d3a 2a58 7f3a
00000280: dc0e e8ba 039f 14ba 3ccf 163b 49d8 8cbb
00000290: 7039 0dbb 1b50 0f3a e9eb deba 5458 9e39
000002a0: e5be 903b 8b26 c8ba 93f3 4a3a 716e 3037
000002b0: 7ea6 1e3b 4ef3 94bb 38b3 f63a 6463 31ba
000002c0: 6160 f13a d208 aabb 4945 d03a 119c 0b3b
000002d0: 9e82 c43a 1880 bcbb 6fc0 093b 95c0 193a
000002e0: 62de cd3a 8cf7 6c39 d217 85bb 5fa7 1cb7
000002f0: 24b8 203b 5bb3 60ba 949e 4fbb 4d85 953b
00000300: 6541 8fba d63a a83b e970 57bb d737 d3ba
00000310: f566 39ba 2745 24b9 5910 c3b8 9694 7939
00000320: ad37 90bb 24d6 0e3b 4e79 0d3b 7e68 dcbb
00000330: 0660 e4b9 4a4a 7cbb 04f7 433b 81c5 96b9
00000340: 6830 f7bb b1a9 bb3a ec0b 9b39 af0b 12bb
00000350: f2aa 7f3a fd5f 8a3a f911 2eba 7baf 3aba
00000360: af6e 8e3b 99b8 bc3a e832 0cbb 7667 9f3b
00000370: 5d3f 7abb 868d 94ba 7470 3b3b 395f b53a
00000380: efc3 c23a 7090 1cbb b232 a13a 7293 4cba
00000390: 9ac2 243a 2a0a abba d2dd 9a3a a8e9 8e3b
000003a0: f5b8 c8b8 c3ae 3f3b 8827 b7ba 8d74 32bb
000003b0: ce49 4b3b 9fd6 173b 1d24 34bb 17df cbba
000003c0: 6694 dfba 4ad5 833a d800 b4ba 4e90 78ba
000003d0: dd21 09bb 5619 54bb 8f43 5a3b 7869 72bb
000003e0: 4951 e439 a597 793b fff3 e3b9 4621 15ba
000003f0: 1705 9cba 7446 32bb bce9 cb3a d052 e5b9

base_model.model.encoder.layer.0.attention.self.value.lora_A.weight f4 [4, 768]
-0.01729431 0.0049416386 0.027957607 0.02546002 0.032793764 0.023778796 -0.0063876365 -0.008862751
-0.0019323437 -0.020831391 -0.00475801 -0.007904325 -0.040266655 0.018446114 -0.019053416 0.019867882
0.026831469 -0.02289286 -0.031636894 -0.026374085 -0.009478619 -0.02808651 0.020567048 -0.013090828
0.019713016 0.032474883 0.01875146 0.0063069 0.026961194 -0.004010878 -0.03253303 0.017827805
0.0032117516 0.005559594 -0.025784321 0.014180068 -0.014316484 0.02279055 0.003993397 -0.032158922
-0.00093910046 0.007763673 0.009396233 -0.018299857 0.025776206 0.03153572 0.013255162 -0.007959525
0.0268881 0.012544411 0.004954715 0.0012798419 0.031461548 -0.03156279 0.01939553 0.013224831
0.015268048 -0.009984962 0.0056441086 -0.020888317 0.013065757 0.009374231 -0.024936432 -0.029660746
-0.011497681 0.021943258 0.027802683 -0.014930992 0.013535207 0.010346504 -0.023065513 -0.03204634
-0.022879394 0.031829953 -0.012343091 -0.001653255 0.027112324 0.003496911 0.022042494 -0.0060852147
0.015818842 -0.007619348 0.017724697 0.015799424 -0.0028954272 0.024510155 0.033510737 0.018156577
-0.023266979 -0.0028058745 0.015243738 -0.018181898 0.01115364 -0.008760752 0.029366365 0.029379502
-0.025083238 -0.0248546 -0.018730372 0.00663207 -0.022358598 0.005901867 -0.0073006367 0.02619791
-0.009852892 -0.016005373 -0.0058924532 0.031352464 0.002464226 0.027061682 -0.012767888 -0.034890067
0.019662624 -0.015416566 0.018627726 -0.019812817 0.013045245 0.012872914 -0.011526202 0.012814827
0.022491451 0.030746209 0.034128994 -0.03641868 -0.0110587925 -0.004970464 -0.023158852 -0.031851485
0.00076161907 -0.024567677 0.0078847045 0.018953402 -0.028623639 -0.019848634 -6.0525563e-05 -0.03265293
-0.027538864 -0.033712476 0.022839399 -0.03299304 -0.037358653 0.008586337 -0.013989465 -0.01245215
-0.032588344 0.022177326 -0.004316306 -0.0151111595 -0.023275414 0.009268546 0.0085545825 0.025882414
-0.03977408 -0.018711368 0.015299734 -0.0007454467 0.021965139 -0.035175633 -0.0102727115 0.02621715
-0.016503407 -0.0011458591 -0.0023826463 -0.018256165 0.018602563 -0.01833851 -0.008567573 -0.034056082
0.03459959 -0.037290614 -0.024876243 -0.009967392 -0.018199414 0.030792398 -0.0011517421 -0.023832077
-0.03594027 -0.016940977 -0.002975831 -0.009974261 0.038895458 0.018220171 0.012355209 0.022423439
-0.023118021 -0.03065009 0.0278651 0.027181953 -0.004798675 0.027653495 -0.030700535 -0.008900684
0.01586845 0.0031492724 0.0013215313 -0.023076322 0.031202802 0.0035413236 -0.009472936 -0.024569357
0.024348954 -0.009151067 0.008257598 0.017102905 -0.01650498 0.038181793 0.0046010716 0.030697681
0.012083559 0.0017961726 0.01904184 0.0011535435 0.019207086 0.013858711 -0.02658337 -0.017346608
0.014038261 -0.009243114 0.038541444 -0.019977054 0.010025353 0.0049085957 0.014210253 -0.031367872
0.008371666 -0.029896203 0.010890241 0.030505903 -0.014015812 0.008220659 -0.044665165 0.036344845
0.030298138 0.02166753 -0.019327395 -0.024142953 -0.01761353 0.023004768 0.014436105 0.016213054
0.001693267 -0.021858364 -0.027756946 0.0015120477 0.013820511 -0.0028738698 0.008649318 -0.033338472
0.00032980586 0.026491016 -0.012185702 0.019954914 0.013170787 -0.033804156 -0.013503138 0.030420035
00000000: ccac 8dbc 78ed a13b 5a07 e53c 8891 d03c
00000010: c152 063d c0cb c23c 614f d1bb 1235 11bc
00000020: b246 fdba 98a6 aabc 15e9 9bbb 2481 01bc
00000030: a6ee 24bd 4e1c 973c e915 9cbc f8c1 a23c
00000040: abcd db3c cf89 bbbc b095 01bd 770e d8bc
00000050: 364c 1bbc ae15 e6bc 3a7c a83c ea7a 56bc
00000060: 317d a13c 6204 053d a99c 993c 1daa ce3b
00000070: b9dd dc3c af6d 83bb 5b41 05bd 9e0b 923c
00000080: 407c 523b 412d b63b a439 d3bc 8453 683c
00000090: b08f 6abc 3fb3 ba3c 0bdb 823b 13b9 03bd
000000a0: f72d 76ba 6966 fe3b a8f2 193c 95e9 95bc
000000b0: 9f28 d33c 992b 013d 2e2c 593c ab68 02bc
000000c0: 6f44 dc3c 1387 4d3c 295b a23b 5ec0 a73a
000000d0: d3dd 003d fc47 01bd 60e3 9e3c f6ac 583c
000000e0: d626 7a3c f797 23bc 37f2 b83b fa1d abbc
000000f0: c211 563c 6096 193c 7d47 ccbc 18fb f2bc
00000100: c560 3cbc 59c2 b33c 74c2 e33c 1fa1 74bc
00000110: c6c2 5d3c 6284 293c e3f3 bcbc 0643 03bd
00000120: 916d bbbc 2060 023d ad3a 4abc 08b2 d8ba
00000130: aa1a de3c 6e2c 653b 7692 b43c 7b66 c7bb
00000140: 8496 813c b9ab f9bb 6233 913c cb6d 813c
00000150: 35c1 3dbb 85c9 c83c 8e42 093d 1abd 943c
00000160: 649a bebc c3e2 37bb dfc0 793c 34f2 94bc
00000170: c2bd 363c 4289 0fbc bb91 f03c 48ad f03c
00000180: 5d7b cdbc e09b cbbc 7070 99bc d651 d93b
00000190: 6129 b7bc 7364 c13b 2e3a efbb 009d d63c
000001a0: 066e 21bc b31d 83bc 7b15 c1bb 716b 003d
000001b0: da7e 213b 76b0 dd3c 6730 51bc e3e8 0ebd
000001c0: 8313 a13c c495 7cbc 2c99 983c 7d4e a2bc
000001d0: b9bb 553c eae8 523c 65d8 3cbc 48f5 513c
000001e0: fe3f b83c 79df fb3c d8ca 0b3d c12b 15bd
000001f0: f02f 35bc 46df a2bb a2b7 bdbc b476 02bd
00000200: 64a7 473a 2742 c9bc d92e 013c 2a44 9b3c
00000210: 1f7c eabc 9a99 a2bc d4dc 7db8 14bf 05bd
00000220: 2f99 e1bc 1816 0abd b119 bb3c b623 07bd
00000230: 6305 19bd b5ad 0c3c 1234 65bc 1a04 4cbc
00000240: 5b7b 05bd 39ad b53c cd6f 8dbb cc94 77bc
00000250: 15ac bebc 19db 173c 8528 0c3c 5b07 d43c
00000260: 25ea 22bd 9548 99bc bcab 7a3c 156a 43ba
00000270: 3cf0 b33c 5314 10bd e04e 28bc 59c5 d63c
00000280: 2732 87bc a730 96ba 2c26 1cbb f48d 95bc
00000290: 6764 983c a53a 96bc 015f 0cbc 647e 0bbd
000002a0: 4db8 0d3d 0bbe 18bd 43c9 cbbc 464e 23bc
000002b0: f016 95bc 5740 fc3c 0df6 96ba 7d3b c3bc
000002c0: 1b36 13bd cec7 8abc 2906 43bb 156b 23bc
000002d0: d850 1f3d 7842 953c 816d 4a3c 5cb1 b73c
000002e0: 0162 bdbc e615 fbbc 5a45 e43c b0ac de3c
000002f0: 343e 9dbb 9589 e23c b07f fbbc 2dd4 11bc
00000300: 8dfe 813c 0664 4e3b 3b37 ad3a 8e0a bdbc
00000310: 059d ff3c 8d15 683b 6034 1bbc ad45 c9bc
00000320: 7577 c73c 5bee 15bc e04a 073c 641b 8c3c
00000330: 7435 87bc 8364 1c3d 96c4 963b b479 fb3c
00000340: 1ffa 453c 8d6d eb3a a2fd 9b3c 7f32 973a
00000350: 2e58 9d3c a60f 633c 5ec5 d9bc 791a 8ebc
00000360: bc00 663c 6e70 17bc a2dd 1d3d eba6 a3bc
00000370: 6141 243c 49d8 a03b 1fd2 683c 997b 00bd
00000380: 5029 093c e2e8 f4bc fb6c 323c 84e7 f93c
00000390: 94a2 65bc f1af 063c d2f2 36bd 55de 143d
000003a0: cd33 f83c 1b80 b13c 7c54 9ebc 71c7 c5bc
000003b0: 404a 90bc 7f74 bc3c 6a85 6c3c 3dd1 843c
000003c0: 9df0 dd3a 5010 b3bc 8962 e3bc e72f c63a
000003d0: 6d6f 623c 8957 3cbb deb5 0d3c ec8d 08bd
000003e0: cbe9 ac39 b003 d93c 8aa6 47bc 7d78 a33c
000003f0: 49ca 573c 3a76 0abd 443c 5dbc 7033 f93c

base_model.model.encoder.layer.0.attention.self.value.lora_B.weight f4 [768, 4]
-0.00067537714 0.0012979486 -0.003306634 0.00038051404 0.004977328 -0.007721 -0.0020632201 0.005048641
-0.0036388026 0.00019904037 0.0029343779 -0.0026318461 -0.0026113975 -0.0001465009 0.00255487 0.0018055727
-0.00067719957 0.0017640338 0.001728681 -0.0029497284 0.0046943054 -0.0010176518 -0.0024244573 -0.0030469464
-0.0029213598 0.00040515678 0.0017772333 -0.0056849006 -0.0105139455 0.0025465356 0.0023984318 0.0016263974
0.0021834583 -0.0018175708 -0.0024502485 0.00219693 -0.0016004359 0.00023071903 0.0063536293 -0.0005393265
0.0025606786 0.0032508692 -0.0018179292 -0.006495164 0.0016862194 0.0012894927 -0.0038071962 -0.0061456594
-0.0023770041 0.0016679802 -0.0035536806 -0.0055207913 0.0025787223 -0.0025023003 -0.00035193568 0.0027241153
0.0010799975 0.003954115 -0.00015244544 -0.004009884 0.0016138896 0.0022352654 0.0005964172 -0.0015945714
0.0029313057 3.14185e-06 0.00066310616 0.0050111045 -0.0034892904 0.0011143062 0.0022509843 -0.0002746888
0.0031878839 -0.0021286812 0.0023897595 0.0017005973 0.0039070817 -0.00031720984 -0.0038192475 -0.005192845
0.0031958497 -0.0011672472 -0.0021968586 0.0004561568 -0.0010187015 -0.0030565043 0.0024219844 0.0022904682
0.0012334803 -0.0020458773 0.000526986 0.00258889 -0.0011752751 -0.0035398018 -0.00123887 -0.00096242427
-0.0022914184 0.0038981603 0.0016899839 -0.0037042291 -0.0029166213 0.0032263144 -0.002386144 -0.0015682457
-0.005945445 0.0068150903 0.005471635 0.00086951157 -0.002499797 -0.0006406387 -0.0009551331 0.0062393374
-0.0010900305 -3.9309183e-05 -0.00050986506 -0.0021818292 0.0038170596 0.0019300517 -0.0012915654 -0.001594529
-0.0026183529 -0.0010677744 0.0037170642 -0.0006244143 -0.0026567974 -0.001331076 0.0023353377 -0.00012471153
-0.0011364262 -0.0012263592 0.00373654 0.00352852 0.0041296547 -0.0023640122 -0.00018387608 0.00080211874
-0.0039725 0.0048451056 0.00066576805 -0.00020665713 -0.0022208944 0.0006858311 0.001806384 0.0013774156
-0.00031549996 -0.00053242926 0.001271102 -0.0006284845 -0.0020671573 0.0005037446 -0.00400337 -9.889844e-05
0.0028119718 -0.0053012413 -0.0037211215 0.0045293886 0.0005786279 0.0031511784 0.0021564576 -0.00019558318
-0.0036141635 0.007027927 0.0004444543 -0.0040137307 0.0020761949 0.00011555056 0.000968002 -0.0020253954
-0.0004365673 -0.0007530102 -0.002028305 0.0015670907 0.004003326 -0.004000721 -0.002526942 -0.0028672304
-0.0027115634 0.004008624 0.0006743878 -0.0069498387 -0.00182855 0.0010879119 0.0007040656 0.003039187
-0.002216362 -0.0007515189 -0.002894888 0.001797062 0.0012380002 0.0011094664 -0.0019094077 0.002539548
0.0008615815 0.001859124 0.0010354612 -0.0040915133 0.0030127598 -0.0020703606 -0.006365956 0.002729794
0.0012835788 -0.0056094956 -0.0038335852 0.00041043537 -0.001459611 0.006309217 -0.0022659781 -0.00024762237
0.0037377256 0.00073498394 -0.00076775055 0.0013798822 0.0039654006 0.0013852916 -0.0041044587 -0.003551163
-0.0001757282 -0.00074055843 -0.0013363644 0.0034810356 -0.0012603318 -0.0021781416 -0.0016568558 0.0008165718
-0.002071257 -0.0042235614 0.0023046941 0.004723786 -0.0010671441 0.0041585574 -0.0027462987 -0.0048234565
0.0033179289 -0.0017581469 -0.0025333916 0.004400151 0.0021048528 0.0021609364 0.0036149574 -0.0011129897
-0.0024672542 -0.0012480576 0.0037265462 -0.0014575362 -0.0017314132 0.00016223933 0.0023665933 0.00042108755
0.00073147856 0.004629495 -0.0015973354 -0.01317565 -0.00076466636 0.0008357814 -0.00073453557 -0.003660881
00000000: cb0b 31ba ee1f aa3a 1db4 58bb bb7f c739
00000010: da18 a33b 7100 fdbb 1737 07bb 126f a53b
00000020: fa78 6ebb 7eb5 5039 b14e 403b 0d7b 2cbb
00000030: fb23 2bbb 099e 19b9 9b6f 273b f7a8 ec3a
00000040: 1886 31ba 2737 e73a e994 e23a 3b50 41bb
00000050: b0d2 993b ba62 85ba a5e3 1ebb 47af 47bb
00000060: 4974 3fbb 396b d439 0ef2 e83a 6748 babb
00000070: af42 2cbc c7e3 263b 022f 1d3b d72c d53a
00000080: 5a18 0f3b 8e3b eeba 5994 20bb 5ffa 0f3b
00000090: b8c5 d1ba 2bed 7139 1b32 d03b 9761 0dba
000000a0: 0fd1 273b 890c 553b 9547 eeba 62d5 d4bb
000000b0: 2204 dd3a 3204 a93a 2782 79bb 8761 c9bb
000000c0: 83c7 1bbb 21a0 da3a dee4 68bb c1e7 b4bb
000000d0: c8ff 283b a2fd 23bb 0284 b8b9 1287 323b
000000e0: b48e 8d3a 8591 813b c3d9 1fb9 5865 83bb
000000f0: 2689 d33a 887d 123b e158 1c3a f000 d1ba
00000100: 261b 403b 92d8 5236 4dd4 2d3a 3134 a43b
00000110: 94ac 64bb e90d 923a 4085 133b 1b04 90b9
00000120: d1eb 503b 5881 0bbb 839d 1c3b 94e6 de3a
00000130: fa06 803b 2f4f a6b9 574c 7abb be28 aabb
00000140: 7671 513b 51fe 98ba 2cf9 0fbb 5428 ef39
00000150: f385 85ba a24f 48bb 28ba 1e3b ae1b 163b
00000160: bbac a13a 2014 06bb 6f25 0a3a 5eaa 293b
00000170: b00b 9aba 05fc 67bb 9461 a2ba 334b 7cba
00000180: 9f2b 16bb 4778 7f3b 7382 dd3a a7c2 72bb
00000190: c924 3fbb 9370 533b da60 1cbb 988d cdba
000001a0: 02d2 c2bb 1f51 df3b 674b b33b efef 633a
000001b0: a2d3 23bb 89f0 27ba e661 7aba 5b73 cc3b
000001c0: 5bdf 8eba eadf 24b8 77a8 05ba 05fd 0ebb
000001d0: a227 7a3b caf9 fc3a be49 a9ba 84ff d0ba
000001e0: ac98 2bbb 90f4 8bba fd99 733b bcaf 23ba
000001f0: aa1d 2ebb 8077 aeba 770c 193b ffc4 02b9
00000200: 23f4 94ba c9bd a0ba bde0 743b be3e 673b
00000210: 0e52 873b 8bed 1abb dcce 40b9 4745 523a
00000220: bf2b 82bb b1c3 9e3b f086 2e3a 1ab2 58b9
00000230: 6d8c 11bb 59c9 333a 30c4 ec3a 668a b43a
00000240: b069 a5b9 b992 0bba 1b9b a63a e1c0 24ba
00000250: 2579 07bb ba0d 043a b42e 83bb b267 cfb8
00000260: 0f49 383b 09b6 adbb 0fde 73bb 446b 943b
00000270: 10af 173a 0084 4e3b 5b53 0d3b 7615 4db9
00000280: 9adb 6cbb 864a e63b a505 e939 9d85 83bb
00000290: c510 083b bc53 f238 84c1 7d3a 7fbc 04bb
000002a0: 12e3 e4b9 a965 45ba 50ed 04bb d766 cd3a
000002b0: 552e 833b 7b18 83bb 0d9b 25bb 25e8 3bbb
000002c0: 7cb4 31bb c65a 833b 66c9 303a 79bb e3bb
000002d0: f5ab efba 4498 8e3a 0b91 383a 192d 473b
000002e0: 6240 11bb 9401 45ba 29b8 3dbb 658b eb3a
000002f0: 6544 a23a 846b 913a 1745 faba 8c6e 263b
00000300: c1db 613a daad f33a 50b8 873a 1a12 86bb
00000310: b971 453b e3ae 07bb 8299 d0bb 58e6 323b
00000320: c23d a83a dccf b7bb e33c 7bbb b42f d739
00000330: 6b50 bfba 8cbd ce3b ce80 14bb 50d3 81b9
00000340: a1f4 743b f0ab 403a de42 49ba 2add b43a
00000350: 31f0 813b ac92 b53a b27e 86bb a1ba 68bb
00000360: ae43 38b9 0922 42ba f328 afba 1622 643b
00000370: b831 a5ba 27bf 0ebb db2a d9ba 350f 563a
00000380: edbd 07bb cd65 8abb 5a0a 173b fdc9 9a3b
00000390: 6adf 8bba 8244 883b 3ffb 33bb 160e 9ebb
000003a0: 9c71 593b 9f71 e6ba 4207 26bb 242f 903b
000003b0: 92f1 093b 7f9e 0d3b ece8 6c3b bde1 91ba
000003c0: a8b1 21bb dd95 a3ba 1239 743b cd0a bfba
000003d0: 96f0 e2ba ca1e 2a39 d918 1b3b 6ac5 dc39
000003e0: b2c0 3f3a 05b3 973b af5d d1ba aede 57bc
000003f0: e473 48ba 5718 5b3a d98d 40ba 64eb 6fbb

base_model.model.encoder.layer.1.attention.self.query.lora_A.weight f4 [4, 768]
-0.012257468 -0.022143202 0.03136605 0.028406072 0.015155274 -0.0015828537 -0.007918871 0.0018839721
0.030847259 0.03218673 -0.020301 -0.009209652 -0.0224223 0.013789098 0.014611266 0.008276749
-0.030603958 0.010994074 0.022722268 0.0022753926 0.035510574 -0.007871691 -0.026433038 -0.025726832
-0.021612441 -0.011962689 -0.020339048 0.034516845 0.010039143 -0.034388263 5.6908925e-07 0.023298329
-0.03383284 0.009765515 -0.01076818 -0.009940931 0.02519649 0.032085657 -0.026709095 -0.011819375
-0.0102918595 0.01911478 -0.022193665 -0.038994513 -0.027355429 -0.024154827 0.010907604 0.029889353
-0.00821074 -0.01112927 0.034296732 -0.011958187 -0.0046420917 0.001662475 -0.028181873 0.020120353
-0.030228915 -0.013485939 0.03618179 -0.030364124 0.02306059 -4.106004e-05 0.0149706295 0.018861376
-0.014424824 -0.010893955 -0.021190217 0.00039899728 0.028123917 0.042203344 -0.032039948 -0.0045864424
-0.0069844094 -0.017939802 0.0143599445 0.025540588 0.013896158 0.007729359 0.004141782 -0.0047317306
-0.017373454 -0.016231228 -0.015077165 -0.021205008 -0.0032372468 -0.0044878735 -0.030058505 -0.032686576
-0.0033486802 0.029995214 0.019912027 0.001694992 0.016565323 0.026720786 0.023711355 0.022377102
0.013386608 -0.022133535 0.02102354 -0.016263353 0.0015416967 -0.007535246 -0.030303372 -0.007944517
-0.03541256 -0.03457441 0.014871865 -0.008168199 0.0076346328 -0.02148622 0.0050888937 0.017621487
0.011015454 -0.02997398 -0.005280975 0.02155311 -0.02969801 -0.021296578 0.012271427 0.034821387
0.034344397 0.0021244271 -0.035402436 0.0136386575 -0.0068242266 0.012452103 0.0057432787 0.02606741
0.023442056 0.027571574 0.030224552 -0.03417237 0.029293349 -0.004753696 0.017369596 0.0027522722
0.025708323 0.005496194 -0.034794044 -0.011561323 -0.039770868 0.037408568 0.009692869 -0.01154313
0.023973223 -0.007785951 -0.02154248 -0.027307926 -0.03542272 0.023877744 0.010140605 -0.023969932
0.01895439 -0.035915453 0.0047727823 0.005562272 0.013449627 0.0069093625 -0.011257598 -0.00881855
0.004946549 0.018743569 0.022193983 -0.013005586 0.015566693 0.005927448 0.038830064 0.028308388
-0.022780752 -0.011146 0.024708517 0.008510456 0.036756862 0.01955763 -0.0075148805 -0.009395818
0.033300225 -0.028350003 -0.0070510176 0.0005518174 -0.040534988 0.03488015 -0.010258678 0.024622539
-0.008845249 0.011622926 0.007771974 0.027641408 0.02650547 -0.014400164 0.00058396667 -0.0076279035
-0.01054536 0.014635095 -0.026676761 0.0005053597 0.023544915 0.0011004441 -0.031778034 -0.009059301
-0.02596136 0.0020214815 0.018696414 0.03177538 0.0114389155 0.0335662 0.037370015 -0.03108356
0.033289567 0.026064087 -0.02494518 0.01001835 -0.026151529 0.0076751164 -0.015355111 0.000664418
0.014487019 0.027342163 0.020875096 -0.01988508 -0.01433827 -0.013808267 -0.022596141 0.018258173
-0.001353571 -0.027918749 -0.021053763 0.020549307 -0.022087412 -0.031690367 0.017450137 -0.034002826
-0.016102433 0.007480015 -0.012159954 0.029224396 0.025942244 -0.014820015 0.010613677 0.0053215395
0.026873203 -0.00014102923 0.002019659 0.0025102783 0.007972211 -0.024268566 0.002214266 -0.008631172
-0.028690435 0.0125491405 0.02023248 -0.0061971666 -0.007818591 0.02767304 0.020283332 0.031001085
00000000: 8cd3 48bc a965 b5bc b079 003d dab3 e83c
00000010: d44d 783c c277 cfba 27be 01bc 9def f63a
00000020: 64b3 fc3c 3cd6 033d 484e a6bc 15e4 16bc
00000030: f9ae b7bc abeb 613c 1764 6f3c 349b 073c
00000040: 27b5 fabc 7d20 343c 0d24 ba3c c11e 153b
00000050: 8973 113d 44f8 00bc 198a d8bc 14c1 d2bc
00000060: 930c b1bc 28ff 43bc 139e a6bc 8961 0d3d
00000070: 387b 243c b5da 0cbd 84c3 1835 23dc be3c
00000080: 4e94 0abd 8aff 1f3c 056d 30bc 49df 22bc
00000090: df68 ce3c 406c 033d 08cd dabc 0da6 41bc
000000a0: 309f 28bc 9996 9c3c 7dcf b5bc b6b8 1fbd
000000b0: 7e18 e0bc 58e0 c5bc cfb5 323c 84da f43c
000000c0: 5786 06bc 8b57 36bc bb7a 0c3d 46ec 43bc
000000d0: b01c 98bb 68e7 d93a acdd e6bc 70d3 a43c
000000e0: a1a2 f7bc 21f4 5cbc 5b33 143d 2fbe f8bc
000000f0: 90e9 bc3c e237 2cb8 5f47 753c 2c83 9a3c
00000100: 1956 6cbc 8f7c 32bc 1b97 adbc 8230 d139
00000110: 2164 e63c 6add 2c3d 523c 03bd de49 96bb
00000120: 79dd e4bb 7ef6 92bc f945 6b3c 7f3a d13c
00000130: b6ac 633c 9046 fd3b c9b7 873b a20c 9bbb
00000140: c652 8ebc 5af7 84bc 3706 77bc 20b6 adbc
00000150: fd27 54bb 030f 93bb 413d f6bc 5ce2 05bd
00000160: 8875 5bbb 86b8 f53c 8c1e a33c 7e2a de3a
00000170: 00b4 873c 8de5 da3c 513e c23c 2f50 b73c
00000180: 8153 5b3c 6351 b5bc 8f39 ac3c b93a 85bc
00000190: c212 ca3a 3aea f6bb c73e f8bc b829 02bc
000001a0: c30c 11bd e69d 0dbd 1fa9 733c e9d3 05bc
000001b0: f12b fa3b df03 b0bc bcc0 a63b f05a 903c
000001c0: 2a7a 343c fe8b f5bc 070c adbb 2690 b03c
000001d0: 3e49 f3bc 2976 aebc 180e 493c dfa0 0e3d
000001e0: b6ac 0c3d f939 0b3b 2502 11bd ad74 5f3c
000001f0: c39d dfbb e803 4c3c 1d32 bc3b 528b d53c
00000200: 8e09 c03c c8dd e13c 7b99 f73c 54f8 0bbd
00000210: 9bf8 ef3c e4c4 9bbb af4a 8e3c 775f 343b
00000220: 439a d23c 6b19 b43b 3384 0ebd b46b 3dbc
00000230: c7e6 22bd ba39 193d d7ce 1e3c 651f 3dbc
00000240: 7e63 c43c 4a21 ffbb db79 b0bc dfb4 dfbc
00000250: 6a17 11bd 429b c33c c824 263c 975c c4bc
00000260: 3d46 9b3c 151c 13bd 0065 9c3b b843 b63b
00000270: d35b 5c3c ef67 e23b ca71 38bc ae7b 10bc
00000280: a916 a23b 1d8c 993c 28d0 b53c 6215 55bc
00000290: 710b 7f3c 0a3b c23b 460c 1f3d fee6 e73c
000002a0: b39e babc b69d 36bc 8469 ca3c 716f 0b3c
000002b0: 5d8e 163d 5337 a03c 633f f6bb ebf0 19bc
000002c0: d165 083d 443e e8bc 390c e7bb d7a7 103a
000002d0: 0408 26bd 7dde 0e3d 0414 28bc 35b5 c93c
000002e0: aaeb 10bc 166e 3e3c 0bac fe3b 3c70 e23c
000002f0: 0022 d93c aaee 6bbc 5715 193a 7ef3 f9bb
00000300: 72c6 2cbc 0ac8 6f3c 3989 dabc 1e7a 043a
00000310: 44e1 c03c c73c 903a af29 02bd 766d 14bc
00000320: ebac d4bc d57a 043b 3929 993c e726 023d
00000330: 4a6a 3b3c b67c 093d 4d11 193d f3a2 febc
00000340: a45a 083d 5a84 d53c d659 ccbc 0124 243c
00000350: bb3b d6bc 8b7f fb3b 0194 7bbc 562c 2e3a
00000360: f65a 6d3c acfc df3c 4002 ab3c 09e6 a2bc
00000370: 10eb 6abc 123c 62bc 8b1b b9bc 2a92 953c
00000380: 4e6a b1ba dcb5 e4bc f178 acbc 0557 a83c
00000390: a9f0 b4bc c2cd 01bd 97f3 8e3c 8c46 0bbd
000003a0: 40e9 83bc ea1a f53b 8b3a 47bc 0068 ef3c
000003b0: d484 d43c a6cf 72bc fde4 2d3c 4f60 ae3b
000003c0: 3125 dc3c 3fe1 13b9 415c 043b 7b83 243b
000003d0: e09d 023c dfce c6bc 381d 113b c269 0dbc
000003e0: 3408 ebbc e99a 4d3c 96be a53c 9a11 cbbb
000003f0: 8c19 00bc 92b2 e23c 3b29 a63c fdf5 fd3c

base_model.model.encoder.layer.1.attention.self.query.lora_B.weight f4 [768, 4]
-0.0010667783 0.0021364822 -0.00039658856 0.0031869472 0.0010522646 0.004761099 -0.0037075637 -0.0050737504
0.00015869596 0.00044666644 0.0008777055 0.0050246436 0.00021878653 0.003118523 -0.0014344167 -0.004581214
0.0005029413 -0.0027758614 0.0026233806 0.0026196567 -0.001758679 0.0015543113 -0.00073853927 -0.005959683
-0.00052842894 0.002403479 -0.000343278 -0.0029610891 -1.8104662e-05 -0.0020219025 -0.0005197592 -0.0041485387
0.0027303896 -0.0014874458 -0.00034023993 -0.0033459251 0.0018969432 0.0016750753 -0.0005833402 -0.003553171
0.004216268 -0.006026845 0.0045078094 0.000770904 0.003207902 0.0017524475 -0.00013153121 -0.004671951
0.00096188276 0.003626158 -0.0022249059 -0.0031241537 -0.0022618093 0.0009629803 0.00088619406 -0.0013364493
0.0017767097 0.003936915 -0.0022753705 -0.0038513627 -0.0010436313 -0.0003657736 0.00077053363 0.00258715
0.0012356514 -0.0049829446 0.0016822375 0.0048343902 -0.0019716974 0.0026646678 -0.00091780676 0.0020528568
0.00038797603 0.0009197994 -0.0014066917 -0.0040976545 0.00067358225 0.0003824094 0.00034150528 0.0017392396
0.0037268486 -0.0055449265 0.0048158537 0.0020922571 -0.0005432756 -0.0017551732 0.0023244512 0.0032493325
-0.0014551936 0.0018790336 -3.31241e-05 -0.002124955 -0.002319299 -0.00075326744 -0.0008538135 0.0005269117
-0.00056103896 -0.0026832218 0.0025313366 0.004283008 0.00096138765 -0.0016711364 -0.00046945695 0.0011197152
0.0028527763 0.00018214296 0.0019072017 -0.004124972 -0.0014856566 0.000924315 0.00039114733 -0.0031379838
-0.0012577383 0.0029496236 -0.0011381063 0.0021246711 -0.003514408 0.0014057007 -0.0008168198 -0.003122471
0.0017916035 0.000474839 0.00060499314 -0.0048036007 0.002553219 -0.0021980675 0.0021640924 0.0039587445
-0.00019828335 0.0027027857 -0.0007161128 -0.00013873166 -0.000110805464 0.0003438667 8.2574545e-05 0.0055611813
0.0032293766 -0.002443287 0.0006460711 -0.002271287 0.005078104 -0.0028902974 0.0022321995 0.00035127223
0.000463351 0.00535532 -0.0048789084 0.0023922187 0.001845341 0.000103166625 0.0047874944 -0.005543951
-0.00091376284 -0.0021378063 0.0017413747 0.004993003 -0.002618838 -0.002089065 1.3975307e-05 0.00656873
0.00088625663 -0.0036162795 0.0033892961 -0.0007480131 0.0014182448 0.0012706753 -0.0023155008 -0.005241129
-0.0011968834 -0.000521086 -2.8531013e-05 0.0029762392 0.0025710182 -0.00046011072 0.00027134205 -0.00066869386
-0.00016062245 -0.0013482505 0.00072065473 0.0013012834 0.0002092665 -0.0013639376 0.006380157 -0.003360848
-0.0024730207 -0.0013190227 0.00129282 0.0050486256 -0.00039340218 -0.00234195 0.0015230185 -0.0018665317
-0.00028451427 -0.0005787608 -5.1046518e-05 0.0023667598 0.00040892404 -0.00024102938 0.0029116543 -0.00040891653
0.0018722289 -0.0011854012 -0.0020953296 -0.0016004647 -0.0012755721 0.0034403803 -0.00051278644 0.0011707435
-0.00077117764 -0.0015379927 0.00094677304 0.0036748713 0.0004549035 0.004883464 -0.0035833844 -0.0058839326
0.0018028726 -0.004874087 0.0030049824 0.0026340478 -0.00039800646 -0.0015910424 -0.00020509577 0.002926038
-0.0013161526 -0.00043491306 0.00046783214 0.00445239 -0.00069010287 -6.283861e-05 -0.005340347 -0.00034856214
0.0034457315 0.0005259459 4.2427557e-05 -0.006027504 0.0012045373 -0.000874155 -0.00087427767 -0.002826685
-0.0043172953 0.0024332579 -0.00064061594 -0.0033279296 -0.0016559224 0.0014938748 0.00050530414 -0.0016110698
1.3892584e-05 0.0026676315 -0.0008555624 -0.0043747653 0.005974001 -0.0052807056 0.0036789367 -0.0016734599
00000000: 24d3 8bba 3904 0c3b 37ed cfb9 1adc 503b
00000010: 24ec 893a fe02 9c3b 99fa 72bb b441 a6bb
00000020: 9f67 2639 8e2e ea39 d215 663a c4a5 a43b
00000030: 106a 6539 2260 4c3b 0a03 bcba 021e 96bb
00000040: d2d7 033a 3aeb 35bb 06ed 2b3b 8cae 2b3b
00000050: 7a83 e6ba 08ba cb3a 889a 41ba 7249 c3bb
00000060: 4486 0aba b083 1d3b fef9 b3b9 d50e 42bb
00000070: 77df 97b7 e581 04bb 7340 08ba 77f0 87bb
00000080: 56f0 323b 66f6 c2ba 3b62 b2b9 4f47 5bbb
00000090: daa2 f83a 338e db3a 4ceb 18ba 51dc 68bb
000000a0: 9f28 8a3b d77c c5bb 3fb6 933b 7e16 4a3a
000000b0: aa3b 523b 61b2 e53a a4eb 09b9 2a17 99bb
000000c0: dc26 7c3a d6a4 6d3b bacf 11bb 9abe 4cbb
000000d0: dd3a 14bb 8470 7c3a 7a4f 683a cc2b afba
000000e0: 7ce0 e83a 3d01 813b 621e 15bb 2567 7cbb
000000f0: 75ca 88ba 4dc5 bfb9 a3fd 493a 2d8d 293b
00000100: 95f5 a13a f847 a3bb 867e dc3a ce69 9e3b
00000110: 9837 01bb b5a1 2e3b f898 70ba 3989 063b
00000120: 4369 cb39 b11e 713a be60 b8ba 9e45 86bb
00000130: 5793 303a 1f7e c839 100c b339 32f7 e33a
00000140: 253e 743b 37b2 b5bb 4fce 9d3b 401e 093b
00000150: 9c6a 0eba d70d e6ba d255 183b c1f2 543b
00000160: 32bc beba e849 f63a bbee 0ab8 d442 0bbb
00000170: 61ff 17bb ec76 45ba 74d2 5fba 7220 0a3a
00000180: b012 13ba fed8 2fbb c8e4 253b 7a58 8c3b
00000190: a205 7c3a 080a dbba 7221 f6b9 68c3 923a
000001a0: a5f5 3a3b a1fd 3e39 12fb f93a c62a 87bb
000001b0: 5dba c2ba bb4d 723a e812 cd39 a2a6 4dbb
000001c0: b2da a4ba 794e 413b 832c 95ba 113e 0b3b
000001d0: fb51 66bb 7d3f b83a d91f 56ba 5fa2 4cbb
000001e0: 3dd4 ea3a d0f3 f839 6798 1e3a 8667 9dbb
000001f0: e853 273b 740d 10bb 72d3 0d3b 5bb8 813b
00000200: 48ea 4fb9 3821 313b 84b9 3bba 7f78 11b9
00000210: 3b60 e8b8 0249 b439 df2b ad38 923a b63b
00000220: f3a3 533b 8e1f 20bb 195d 293a dfd9 14bb
00000230: 3966 a63b 256b 3dbb 184a 123b f62a b839
00000240: ebed f239 ae7b af3b 40df 9fbb c5c6 1c3b
00000250: 5edf f13a 295b d838 6ae0 9c3b 08aa b5bb
00000260: 9689 6fba 701a 0cbb d73e e43a 589c a33b
00000270: d0a0 2bbb b2e8 08bb 7d77 6a37 803e d73b
00000280: ad53 683a 1aff 6cbb f41e 5e3b 4f16 44ba
00000290: 66e4 b93a ca8c a63a a8bf 17bb c7bd abbb
000002a0: bee0 9cba 7d99 08ba e255 efb7 020d 433b
000002b0: 877e 283b 043b f1b9 ea42 8e39 494b 2fba
000002c0: c36c 28b9 c8b7 b0ba 52ea 3c3a d38f aa3a
000002d0: 8c6e 5b39 27c6 b2ba a310 d13b ac41 5cbb
000002e0: 6712 22bb 0fe3 acba d773 a93a f16e a53b
000002f0: 8c41 ceb9 677b 19bb 05a0 c73a 69a6 f4ba
00000300: dc2a 95b9 fbb7 17ba c81a 56b8 a41b 1b3b
00000310: db64 d639 d5bc 7cb9 74d1 3e3b d963 d6b9
00000320: 9465 f53a 775f 9bba cc51 09bb afc6 d1ba
00000330: 1931 a7ba 0178 613b 846c 06ba a273 993a
00000340: db28 4aba 7996 c9ba dd30 783a 1cd6 703b
00000350: 1d80 ee39 7705 a03b 37d7 6abb 01ce c0bb
00000360: 5e4e ec3a ceb6 9fbb 3def 443b fd9f 2c3b
00000370: 86ab d0b9 868a d0ba fa0e 57b9 c6c2 3f3b
00000380: c182 acba 0b05 e4b9 5e47 f539 5be5 913b
00000390: 05e8 34ba 39c8 83b8 14fe aebb 38bf b6b9
000003a0: c8d1 613b a2df 093a 3ef4 3138 5e82 c5bb
000003b0: 91e1 9d3a 8d27 65ba c82f 65ba e83f 39bb
000003c0: 1978 8dbb 4b77 1f3b 02ef 27ba 6519 5abb
000003d0: 890b d9ba 1fce c33a 6376 043a 882a d3ba
000003e0: 3214 6937 6ed3 2e3b d247 60ba 315a 8fbb
000003f0: 8dc1 c33b c509 adbb 511a 713b ff57 dbba

base_model.model.encoder.layer.1.attention.self.value.lora_A.weight f4 [4, 768]
-0.03510248 0.024530407 -0.013223458 0.02813662 -0.025222246 0.013704285 -0.010769551 0.02934052
0.007119898 -0.025110213 0.01656742 0.0032372144 0.03203322 0.017131295 -0.024900941 0.020474516
-0.017323928 0.024373468 0.0010368922 0.024315272 -0.028022006 0.033912446 0.0069929124 0.0116763385
-0.032134175 0.008736616 -0.038463067 0.020135824 -0.020182317 -0.037535515 -0.032924667 0.00027159965
0.027823687 0.028195035 0.026551683 0.0259682 0.017497446 -0.023018511 -0.008676264 0.008232055
0.034880497 0.03258588 0.02645735 -0.0285005 -0.031211969 0.033067137 -0.01578433 -0.033909965
0.017598737 0.027373657 -0.007540016 -0.009307822 -0.013171521 -0.004793104 0.0021471872 -0.0145817995
-0.0011002567 0.00455929 -0.019414663 0.015899092 0.018598557 0.0010512947 -0.028706366 0.021660486
-0.024659375 0.01668404 -0.011516445 0.03191837 -0.011149409 0.03048573 -0.026593557 -0.025958112
-0.026464965 -0.003224056 -0.01209453 -0.03570778 0.006081917 0.011491624 0.012352825 -0.014358745
0.029735971 0.023703996 0.02813028 -0.012715669 -0.006736218 -0.016878912 -0.019915413 -0.022025162
-0.0029001115 0.014376421 -0.005117317 0.014171818 -0.007055764 0.017738584 0.0193713 -0.034017563
-0.004471392 0.0068930625 0.0034480866 -0.029430116 0.0030970583 -0.02496559 0.0009199457 -0.011991213
0.027930574 -0.029527415 0.01909301 -0.016135937 -0.012118383 0.0028622395 -0.0075657726 0.0016017391
0.03777105 0.029084703 0.0039047506 0.010333803 -0.005742272 0.013788442 0.012712972 0.022118729
-0.0070549534 0.002488795 -0.015229541 -0.0051386384 -0.01115184 -0.012492482 0.01692595 0.023002706
-0.014027947 0.037057314 0.010973611 -0.03387621 -0.0061755558 0.014342943 0.030220568 0.01759832
0.008008729 -0.0026933434 -0.01899557 0.0133783305 0.008006702 0.029155899 0.0030789536 0.010094227
0.00077341346 0.03302707 0.026777023 -0.012179384 -0.003501697 0.0024422104 0.023051944 0.011869017
0.029746389 0.027456742 -0.022873672 0.013996142 0.016645014 0.029818218 0.009440293 0.03601251
0.0041469075 -0.025757588 0.027029274 0.0029498765 0.0066409735 0.040504474 -0.0011143858 0.015341287
0.02347335 0.015035443 -0.028426623 -0.0023454195 -0.027894167 0.0288208 -0.014969937 0.03387713
-0.023689868 0.008194561 0.026449919 0.017061902 0.023906915 0.015426848 0.030740185 0.020752916
-0.03224808 -0.012929239 -0.0046381764 -0.011441691 0.023782535 0.027440304 -0.019564876 -0.020820206
0.005035814 -0.03657295 0.036130294 -0.0278154 0.003558035 -0.017586194 -0.007350597 0.016333822
0.021313267 0.002931222 0.029552985 -0.010317669 -0.0074709463 -0.017964412 -0.024166929 0.007950998
0.0038870366 -0.034228716 -0.012802849 -0.024356158 -0.037234366 0.0048907567 0.040640675 -0.03153977
-0.019876258 0.031118134 -0.026779126 0.012209536 0.0110267745 0.0077994247 -0.036838148 -0.04025354
-0.01372065 -0.030410204 -0.023555491 -0.02577276 -0.012997174 0.034075283 -0.016598474 0.03555231
-0.013370773 0.01601591 -0.014548158 -0.022929044 -0.024042282 0.0072911717 7.78865e-05 0.02144072
-0.009200981 0.007530473 -0.013892082 0.011107328 -0.019855825 -0.009462036 0.004781736 0.033555627
0.009963694 -0.0044409847 -0.012598158 0.022251178 -0.013505568 0.016936855 0.0047654514 0.013992675
00000000: 9ec7 0fbd fef3 c83c 34a7 58bc c57e e63c
00000010: e29e cebc f087 603c c572 30bc 885b f03c
00000020: 094e e93b efb3 cdbc 66b8 873c 7227 543b
00000030: 4435 033d ee56 8c3c 0ffd cbbc 2cba a73c
00000040: e9ea 8dbc deaa c73c 54e8 873a d230 c73c
00000050: 688e e5bc c7e7 0a3d cd24 e53b 1d4e 3f3c
00000060: 209f 03bd 0624 0f3c 738b 1dbd e2f3 a43c
00000070: 6355 a5bc d7be 19bd 04dc 06bd 7d65 8e39
00000080: 80ee e33c 46f9 e63c ea82 d93c 43bb d43c
00000090: ce56 8f3c 5191 bcbc e426 0ebc bedf 063c
000000a0: dade 0e3d c678 053d 16bd d83c e179 e9bc
000000b0: 3eb0 ffbc 6871 073d 244e 81bc 2de5 0abd
000000c0: 3a2b 903c b83e e03c 3d12 f7bb d67f 18bc
000000d0: 5dcd 57bc 780f 9dbb d3b7 0c3b 80e8 6ebc
000000e0: 7d36 90ba 1966 953b 800b 9fbc d03e 823c
000000f0: 005c 983c 99cb 893a 9d29 ebbc 5571 b13c
00000100: 7502 cabc f8ac 883c 79af 3cbc d6bc 023d
00000110: 03ac 36bc 36bd f93c bbda d9bc 1ba6 d4bc
00000120: 0ecd d8bc af4a 53bb 2328 46bc 5242 12bd
00000130: d14a c73b 5d47 3c3c 8163 4a3c f140 6bbc
00000140: da98 f33c e22e c23c 7971 e63c 6255 50bc
00000150: 7ebb dcbb a545 8abc a625 a3bc 1d6e b4bc
00000160: cc0f 3ebb 158b 6b3c 2baf a7bb ea30 683c
00000170: 0a34 e7bb 8250 913c 8fb0 9e3c 0056 0bbd
00000180: c184 92bb 33df e13b 4bf9 613b 6d17 f1bc
00000190: 04f8 4a3b a384 ccbc 8328 713a cb76 44bc
000001a0: a9ce e43c 7ae3 f1bc f268 9c3c 832f 84bc
000001b0: 2f8c 46bc 6994 3b3b 4dea f7bb 72f1 d13a
000001c0: d1b5 1a3d 0b43 ee3c d8e6 7f3b 1c4f 293c
000001d0: ab29 bcbb ebe8 613c 124a 503c 5632 b53c
000001e0: 3d2d e7bb 0d1b 233b 5385 79bc 0662 a8bb
000001f0: 35b6 36bc 44ad 4cbc 4aa8 8a3c 2c70 bc3c
00000200: 79d5 65bc 69c9 173d a9ca 333c c8c1 0abd
00000210: 515c cabb aafe 6a3c 2091 f73c 5a2a 903c
00000220: 0b37 033c ce82 30bb 999c 9bbc c930 5b3c
00000230: 8b2e 033c 5ad8 ee3c 45c8 493b 4262 253c
00000240: e6be 4a3a 6547 073d 7d5b db3c 0a8c 47bc
00000250: ba7c 65bb 7e0d 203b 6ed7 bc3c 4476 423c
00000260: b3ae f33c f6ec e03c 9161 bbbc 1350 653c
00000270: 205b 883c 5645 f43c 75ab 1a3c db81 133d
00000280: c8e2 873b 9401 d3bc 7f6c dd3c b752 413b
00000290: 869c d93b 05e8 253d 9510 92ba 055a 7b3c
000002a0: 2f4b c03c 3857 763c f3de e8bc 9cb5 19bb
000002b0: 4f82 e4bc 9919 ec3c 7744 75bc bfc2 0a3d
000002c0: 4111 c2bc 7b42 063c 80ad d83c 67c5 8b3c
000002d0: 6fd8 c33c e4c0 7c3c d7d2 fb3c 0502 aa3c
000002e0: 9016 04bd 29d5 53bc d8fb 97bb ee75 3bbc
000002f0: 97d3 c23c 7dca e03c 8546 a0bc 238f aabc
00000300: 7803 a53b 85cd 15bd 5cfd 133d 1fdd e3bc
00000310: ec2d 693b ec10 90bc 47dd f0bb 82ce 853c
00000320: 2999 ae3c bf19 403b 1a19 f23c 710b 29bc
00000330: d7ce f4bb 1a2a 93bc b9f9 c5bc e744 023c
00000340: a7bd 7e3b 6933 0cbd 0ac3 51bc 9186 c7bc
00000350: 1083 18bd a442 a03b d676 263d d92f 01bd
00000360: 89d3 a2bc 75eb fe3c e65f dbbc 810a 483c
00000370: a5a9 343c 5192 ff3b 99e3 16bd e5e0 24bd
00000380: 94cc 60bc d21e f9bc 72f7 c0bc 6521 d3bc
00000390: 19f2 54bc 8692 0b3d 86f9 87bc 4d9f 113d
000003a0: 1611 5bbc cc33 833c 665b 6ebc b1d5 bbbc
000003b0: 52f4 c4bc c8ea ee3b ff56 a338 73a4 af3c
000003c0: b6bf 16bc 30c2 f63b 9d9b 63bc 83fb 353c
000003d0: afa8 a2bc a806 1bbc 1cb0 9c3b a071 093d
000003e0: c33e 233c ae85 91bb 8168 4ebc 1a48 b63c
000003f0: 7546 5dbc 29bf 8a3c 8127 9c3b 8841 653c
